
Basic Specs
----------------------------------------------------
Input Size: torch.Size([64, 400])


Model Specs: 

Total number of Parameters 39.86 million
TransformerClass(
  (embedding): Embedding(2003, 512)
  (positional_encoding): PositionalEncoding(
    (dropout): Dropout(p=0, inplace=False)
  )
  (blocks): Sequential(
    (0): TransformerBlock(
      (multi_atten): MultiHeadAttention(
        (heads): ModuleList(
          (0-7): 8 x Head(
            (key): Linear(in_features=512, out_features=64, bias=False)
            (query): Linear(in_features=512, out_features=64, bias=False)
            (value): Linear(in_features=512, out_features=64, bias=False)
            (dropout): Dropout(p=0.1, inplace=False)
          )
        )
        (projection): Linear(in_features=512, out_features=512, bias=True)
        (dropout): Dropout(p=0.1, inplace=False)
      )
      (feedforward): FeedForward(
        (fflayer): Sequential(
          (0): Linear(in_features=512, out_features=2048, bias=True)
          (1): ReLU()
          (2): Linear(in_features=2048, out_features=512, bias=True)
          (3): Dropout(p=0.2, inplace=False)
        )
      )
      (layernorm1): LayerNorm((512,), eps=1e-05, elementwise_affine=True)
      (layernorm2): LayerNorm((512,), eps=1e-05, elementwise_affine=True)
    )
    (1): TransformerBlock(
      (multi_atten): MultiHeadAttention(
        (heads): ModuleList(
          (0-7): 8 x Head(
            (key): Linear(in_features=512, out_features=64, bias=False)
            (query): Linear(in_features=512, out_features=64, bias=False)
            (value): Linear(in_features=512, out_features=64, bias=False)
            (dropout): Dropout(p=0.1, inplace=False)
          )
        )
        (projection): Linear(in_features=512, out_features=512, bias=True)
        (dropout): Dropout(p=0.1, inplace=False)
      )
      (feedforward): FeedForward(
        (fflayer): Sequential(
          (0): Linear(in_features=512, out_features=2048, bias=True)
          (1): ReLU()
          (2): Linear(in_features=2048, out_features=512, bias=True)
          (3): Dropout(p=0.2, inplace=False)
        )
      )
      (layernorm1): LayerNorm((512,), eps=1e-05, elementwise_affine=True)
      (layernorm2): LayerNorm((512,), eps=1e-05, elementwise_affine=True)
    )
    (2): TransformerBlock(
      (multi_atten): MultiHeadAttention(
        (heads): ModuleList(
          (0-7): 8 x Head(
            (key): Linear(in_features=512, out_features=64, bias=False)
            (query): Linear(in_features=512, out_features=64, bias=False)
            (value): Linear(in_features=512, out_features=64, bias=False)
            (dropout): Dropout(p=0.1, inplace=False)
          )
        )
        (projection): Linear(in_features=512, out_features=512, bias=True)
        (dropout): Dropout(p=0.1, inplace=False)
      )
      (feedforward): FeedForward(
        (fflayer): Sequential(
          (0): Linear(in_features=512, out_features=2048, bias=True)
          (1): ReLU()
          (2): Linear(in_features=2048, out_features=512, bias=True)
          (3): Dropout(p=0.2, inplace=False)
        )
      )
      (layernorm1): LayerNorm((512,), eps=1e-05, elementwise_affine=True)
      (layernorm2): LayerNorm((512,), eps=1e-05, elementwise_affine=True)
    )
    (3): TransformerBlock(
      (multi_atten): MultiHeadAttention(
        (heads): ModuleList(
          (0-7): 8 x Head(
            (key): Linear(in_features=512, out_features=64, bias=False)
            (query): Linear(in_features=512, out_features=64, bias=False)
            (value): Linear(in_features=512, out_features=64, bias=False)
            (dropout): Dropout(p=0.1, inplace=False)
          )
        )
        (projection): Linear(in_features=512, out_features=512, bias=True)
        (dropout): Dropout(p=0.1, inplace=False)
      )
      (feedforward): FeedForward(
        (fflayer): Sequential(
          (0): Linear(in_features=512, out_features=2048, bias=True)
          (1): ReLU()
          (2): Linear(in_features=2048, out_features=512, bias=True)
          (3): Dropout(p=0.2, inplace=False)
        )
      )
      (layernorm1): LayerNorm((512,), eps=1e-05, elementwise_affine=True)
      (layernorm2): LayerNorm((512,), eps=1e-05, elementwise_affine=True)
    )
    (4): TransformerBlock(
      (multi_atten): MultiHeadAttention(
        (heads): ModuleList(
          (0-7): 8 x Head(
            (key): Linear(in_features=512, out_features=64, bias=False)
            (query): Linear(in_features=512, out_features=64, bias=False)
            (value): Linear(in_features=512, out_features=64, bias=False)
            (dropout): Dropout(p=0.1, inplace=False)
          )
        )
        (projection): Linear(in_features=512, out_features=512, bias=True)
        (dropout): Dropout(p=0.1, inplace=False)
      )
      (feedforward): FeedForward(
        (fflayer): Sequential(
          (0): Linear(in_features=512, out_features=2048, bias=True)
          (1): ReLU()
          (2): Linear(in_features=2048, out_features=512, bias=True)
          (3): Dropout(p=0.2, inplace=False)
        )
      )
      (layernorm1): LayerNorm((512,), eps=1e-05, elementwise_affine=True)
      (layernorm2): LayerNorm((512,), eps=1e-05, elementwise_affine=True)
    )
    (5): TransformerBlock(
      (multi_atten): MultiHeadAttention(
        (heads): ModuleList(
          (0-7): 8 x Head(
            (key): Linear(in_features=512, out_features=64, bias=False)
            (query): Linear(in_features=512, out_features=64, bias=False)
            (value): Linear(in_features=512, out_features=64, bias=False)
            (dropout): Dropout(p=0.1, inplace=False)
          )
        )
        (projection): Linear(in_features=512, out_features=512, bias=True)
        (dropout): Dropout(p=0.1, inplace=False)
      )
      (feedforward): FeedForward(
        (fflayer): Sequential(
          (0): Linear(in_features=512, out_features=2048, bias=True)
          (1): ReLU()
          (2): Linear(in_features=2048, out_features=512, bias=True)
          (3): Dropout(p=0.2, inplace=False)
        )
      )
      (layernorm1): LayerNorm((512,), eps=1e-05, elementwise_affine=True)
      (layernorm2): LayerNorm((512,), eps=1e-05, elementwise_affine=True)
    )
    (6): TransformerBlock(
      (multi_atten): MultiHeadAttention(
        (heads): ModuleList(
          (0-7): 8 x Head(
            (key): Linear(in_features=512, out_features=64, bias=False)
            (query): Linear(in_features=512, out_features=64, bias=False)
            (value): Linear(in_features=512, out_features=64, bias=False)
            (dropout): Dropout(p=0.1, inplace=False)
          )
        )
        (projection): Linear(in_features=512, out_features=512, bias=True)
        (dropout): Dropout(p=0.1, inplace=False)
      )
      (feedforward): FeedForward(
        (fflayer): Sequential(
          (0): Linear(in_features=512, out_features=2048, bias=True)
          (1): ReLU()
          (2): Linear(in_features=2048, out_features=512, bias=True)
          (3): Dropout(p=0.2, inplace=False)
        )
      )
      (layernorm1): LayerNorm((512,), eps=1e-05, elementwise_affine=True)
      (layernorm2): LayerNorm((512,), eps=1e-05, elementwise_affine=True)
    )
    (7): TransformerBlock(
      (multi_atten): MultiHeadAttention(
        (heads): ModuleList(
          (0-7): 8 x Head(
            (key): Linear(in_features=512, out_features=64, bias=False)
            (query): Linear(in_features=512, out_features=64, bias=False)
            (value): Linear(in_features=512, out_features=64, bias=False)
            (dropout): Dropout(p=0.1, inplace=False)
          )
        )
        (projection): Linear(in_features=512, out_features=512, bias=True)
        (dropout): Dropout(p=0.1, inplace=False)
      )
      (feedforward): FeedForward(
        (fflayer): Sequential(
          (0): Linear(in_features=512, out_features=2048, bias=True)
          (1): ReLU()
          (2): Linear(in_features=2048, out_features=512, bias=True)
          (3): Dropout(p=0.2, inplace=False)
        )
      )
      (layernorm1): LayerNorm((512,), eps=1e-05, elementwise_affine=True)
      (layernorm2): LayerNorm((512,), eps=1e-05, elementwise_affine=True)
    )
    (8): TransformerBlock(
      (multi_atten): MultiHeadAttention(
        (heads): ModuleList(
          (0-7): 8 x Head(
            (key): Linear(in_features=512, out_features=64, bias=False)
            (query): Linear(in_features=512, out_features=64, bias=False)
            (value): Linear(in_features=512, out_features=64, bias=False)
            (dropout): Dropout(p=0.1, inplace=False)
          )
        )
        (projection): Linear(in_features=512, out_features=512, bias=True)
        (dropout): Dropout(p=0.1, inplace=False)
      )
      (feedforward): FeedForward(
        (fflayer): Sequential(
          (0): Linear(in_features=512, out_features=2048, bias=True)
          (1): ReLU()
          (2): Linear(in_features=2048, out_features=512, bias=True)
          (3): Dropout(p=0.2, inplace=False)
        )
      )
      (layernorm1): LayerNorm((512,), eps=1e-05, elementwise_affine=True)
      (layernorm2): LayerNorm((512,), eps=1e-05, elementwise_affine=True)
    )
    (9): TransformerBlock(
      (multi_atten): MultiHeadAttention(
        (heads): ModuleList(
          (0-7): 8 x Head(
            (key): Linear(in_features=512, out_features=64, bias=False)
            (query): Linear(in_features=512, out_features=64, bias=False)
            (value): Linear(in_features=512, out_features=64, bias=False)
            (dropout): Dropout(p=0.1, inplace=False)
          )
        )
        (projection): Linear(in_features=512, out_features=512, bias=True)
        (dropout): Dropout(p=0.1, inplace=False)
      )
      (feedforward): FeedForward(
        (fflayer): Sequential(
          (0): Linear(in_features=512, out_features=2048, bias=True)
          (1): ReLU()
          (2): Linear(in_features=2048, out_features=512, bias=True)
          (3): Dropout(p=0.2, inplace=False)
        )
      )
      (layernorm1): LayerNorm((512,), eps=1e-05, elementwise_affine=True)
      (layernorm2): LayerNorm((512,), eps=1e-05, elementwise_affine=True)
    )
    (10): TransformerBlock(
      (multi_atten): MultiHeadAttention(
        (heads): ModuleList(
          (0-7): 8 x Head(
            (key): Linear(in_features=512, out_features=64, bias=False)
            (query): Linear(in_features=512, out_features=64, bias=False)
            (value): Linear(in_features=512, out_features=64, bias=False)
            (dropout): Dropout(p=0.1, inplace=False)
          )
        )
        (projection): Linear(in_features=512, out_features=512, bias=True)
        (dropout): Dropout(p=0.1, inplace=False)
      )
      (feedforward): FeedForward(
        (fflayer): Sequential(
          (0): Linear(in_features=512, out_features=2048, bias=True)
          (1): ReLU()
          (2): Linear(in_features=2048, out_features=512, bias=True)
          (3): Dropout(p=0.2, inplace=False)
        )
      )
      (layernorm1): LayerNorm((512,), eps=1e-05, elementwise_affine=True)
      (layernorm2): LayerNorm((512,), eps=1e-05, elementwise_affine=True)
    )
    (11): TransformerBlock(
      (multi_atten): MultiHeadAttention(
        (heads): ModuleList(
          (0-7): 8 x Head(
            (key): Linear(in_features=512, out_features=64, bias=False)
            (query): Linear(in_features=512, out_features=64, bias=False)
            (value): Linear(in_features=512, out_features=64, bias=False)
            (dropout): Dropout(p=0.1, inplace=False)
          )
        )
        (projection): Linear(in_features=512, out_features=512, bias=True)
        (dropout): Dropout(p=0.1, inplace=False)
      )
      (feedforward): FeedForward(
        (fflayer): Sequential(
          (0): Linear(in_features=512, out_features=2048, bias=True)
          (1): ReLU()
          (2): Linear(in_features=2048, out_features=512, bias=True)
          (3): Dropout(p=0.2, inplace=False)
        )
      )
      (layernorm1): LayerNorm((512,), eps=1e-05, elementwise_affine=True)
      (layernorm2): LayerNorm((512,), eps=1e-05, elementwise_affine=True)
    )
  )
  (final_layernorm): LayerNorm((512,), eps=1e-05, elementwise_affine=True)
  (final_linear): Linear(in_features=512, out_features=2003, bias=True)
)





Training Information
--------------------------------------------------------------------------------
Training Begin
----------------------------------------------------
There are 1 epochs, and for each epoch, there are 9375 batches of training data
Total Training Steps: 9375
Total Displaying Information: 11
Optimizer name - AdamW learning rate: 0.0001
…
